…
[params] delta_total_minus_check: 0

[torchinfo] Model architecture summary

======================================================================================================================================================
Layer (type:depth-idx)                             Input Shape               Output Shape              Param #                   Trainable
======================================================================================================================================================
SwinUNetDualViewSSLPhase1                          [1, 1, 256, 256]          [1, 1, 256, 256]          --                        True
├─PatchEmbed: 1-1                                  [1, 1, 256, 256]          [1, 16, 16, 96]           --                        True
│    └─Conv2d: 2-1                                 [1, 1, 256, 256]          [1, 96, 16, 16]           24,672                    True
├─BasicLayer: 1-2                                  [1, 16, 16, 96]           [1, 16, 16, 96]           --                        True
│    └─ModuleList: 2-2                             --                        --                        --                        True
│    │    └─SwinTransformerBlock: 3-1              [1, 16, 16, 96]           [1, 16, 16, 96]           --                        True
│    │    │    └─LayerNorm: 4-1                    [1, 21, 21, 96]           [1, 21, 21, 96]           192                       True
│    │    │    └─WindowAttention: 4-2              [9, 49, 96]               [9, 49, 96]               37,755                    True
│    │    │    └─LayerNorm: 4-3                    [1, 21, 21, 96]           [1, 21, 21, 96]           192                       True
│    │    │    └─Mlp: 4-4                          [1, 21, 21, 96]           [1, 21, 21, 96]           74,208                    True
│    │    └─SwinTransformerBlock: 3-2              [1, 16, 16, 96]           [1, 16, 16, 96]           --                        True
│    │    │    └─LayerNorm: 4-5                    [1, 21, 21, 96]           [1, 21, 21, 96]           192                       True
│    │    │    └─WindowAttention: 4-6              [9, 49, 96]               [9, 49, 96]               37,755                    True
│    │    │    └─LayerNorm: 4-7                    [1, 21, 21, 96]           [1, 21, 21, 96]           192                       True
│    │    │    └─Mlp: 4-8                          [1, 21, 21, 96]           [1, 21, 21, 96]           74,208                    True
├─PatchMerging: 1-3                                [1, 16, 16, 96]           [1, 8, 8, 192]            --                        True
│    └─LayerNorm: 2-3                              [1, 8, 8, 384]            [1, 8, 8, 384]            768                       True
│    └─Linear: 2-4                                 [1, 8, 8, 384]            [1, 8, 8, 192]            73,728                    True
├─BasicLayer: 1-4                                  [1, 8, 8, 192]            [1, 8, 8, 192]            --                        True
│    └─ModuleList: 2-5                             --                        --                        --                        True
│    │    └─SwinTransformerBlock: 3-3              [1, 8, 8, 192]            [1, 8, 8, 192]            --                        True
│    │    │    └─LayerNorm: 4-9                    [1, 14, 14, 192]          [1, 14, 14, 192]          384                       True
│    │    │    └─WindowAttention: 4-10             [4, 49, 192]              [4, 49, 192]              149,238                   True
│    │    │    └─LayerNorm: 4-11                   [1, 14, 14, 192]          [1, 14, 14, 192]          384                       True
│    │    │    └─Mlp: 4-12                         [1, 14, 14, 192]          [1, 14, 14, 192]          295,872                   True
│    │    └─SwinTransformerBlock: 3-4              [1, 8, 8, 192]            [1, 8, 8, 192]            --                        True
│    │    │    └─LayerNorm: 4-13                   [1, 14, 14, 192]          [1, 14, 14, 192]          384                       True
│    │    │    └─WindowAttention: 4-14             [4, 49, 192]              [4, 49, 192]              149,238                   True
│    │    │    └─LayerNorm: 4-15                   [1, 14, 14, 192]          [1, 14, 14, 192]          384                       True
│    │    │    └─Mlp: 4-16                         [1, 14, 14, 192]          [1, 14, 14, 192]          295,872                   True
├─PatchEmbed: 1-5                                  [1, 1, 256, 256]          [1, 16, 16, 96]           --                        True
│    └─Conv2d: 2-6                                 [1, 1, 256, 256]          [1, 96, 16, 16]           24,672                    True
├─BasicLayer: 1-6                                  [1, 16, 16, 96]           [1, 16, 16, 96]           --                        True
│    └─ModuleList: 2-7                             --                        --                        --                        True
│    │    └─SwinTransformerBlock: 3-5              [1, 16, 16, 96]           [1, 16, 16, 96]           --                        True
│    │    │    └─LayerNorm: 4-17                   [1, 21, 21, 96]           [1, 21, 21, 96]           192                       True
│    │    │    └─WindowAttention: 4-18             [9, 49, 96]               [9, 49, 96]               37,755                    True
│    │    │    └─LayerNorm: 4-19                   [1, 21, 21, 96]           [1, 21, 21, 96]           192                       True
│    │    │    └─Mlp: 4-20                         [1, 21, 21, 96]           [1, 21, 21, 96]           74,208                    True
│    │    └─SwinTransformerBlock: 3-6              [1, 16, 16, 96]           [1, 16, 16, 96]           --                        True
│    │    │    └─LayerNorm: 4-21                   [1, 21, 21, 96]           [1, 21, 21, 96]           192                       True
│    │    │    └─WindowAttention: 4-22             [9, 49, 96]               [9, 49, 96]               37,755                    True
│    │    │    └─LayerNorm: 4-23                   [1, 21, 21, 96]           [1, 21, 21, 96]           192                       True
│    │    │    └─Mlp: 4-24                         [1, 21, 21, 96]           [1, 21, 21, 96]           74,208                    True
├─PatchMerging: 1-7                                [1, 16, 16, 96]           [1, 8, 8, 192]            --                        True
│    └─LayerNorm: 2-8                              [1, 8, 8, 384]            [1, 8, 8, 384]            768                       True
│    └─Linear: 2-9                                 [1, 8, 8, 384]            [1, 8, 8, 192]            73,728                    True
├─BasicLayer: 1-8                                  [1, 8, 8, 192]            [1, 8, 8, 192]            --                        True
│    └─ModuleList: 2-10                            --                        --                        --                        True
│    │    └─SwinTransformerBlock: 3-7              [1, 8, 8, 192]            [1, 8, 8, 192]            --                        True
│    │    │    └─LayerNorm: 4-25                   [1, 14, 14, 192]          [1, 14, 14, 192]          384                       True
│    │    │    └─WindowAttention: 4-26             [4, 49, 192]              [4, 49, 192]              149,238                   True
│    │    │    └─LayerNorm: 4-27                   [1, 14, 14, 192]          [1, 14, 14, 192]          384                       True
│    │    │    └─Mlp: 4-28                         [1, 14, 14, 192]          [1, 14, 14, 192]          295,872                   True
│    │    └─SwinTransformerBlock: 3-8              [1, 8, 8, 192]            [1, 8, 8, 192]            --                        True
│    │    │    └─LayerNorm: 4-29                   [1, 14, 14, 192]          [1, 14, 14, 192]          384                       True
│    │    │    └─WindowAttention: 4-30             [4, 49, 192]              [4, 49, 192]              149,238                   True
│    │    │    └─LayerNorm: 4-31                   [1, 14, 14, 192]          [1, 14, 14, 192]          384                       True
│    │    │    └─Mlp: 4-32                         [1, 14, 14, 192]          [1, 14, 14, 192]          295,872                   True
├─SACAStage1Block: 1-9                             [1, 8, 8, 192]            [1, 8, 8, 192]            1                         True
│    └─LayerNorm: 2-11                             [1, 14, 14, 192]          [1, 14, 14, 192]          384                       True
│    └─LayerNorm: 2-12                             [1, 14, 14, 192]          [1, 14, 14, 192]          384                       True
│    └─WindowCrossAttention: 2-13                  [4, 49, 192]              [4, 49, 192]              1,014                     True
│    │    └─Linear: 3-9                            [4, 49, 192]              [4, 49, 192]              37,056                    True
│    │    └─Linear: 3-10                           [4, 49, 192]              [4, 49, 384]              74,112                    True
│    │    └─Dropout: 3-11                          [4, 6, 49, 49]            [4, 6, 49, 49]            --                        --
│    │    └─Linear: 3-12                           [4, 49, 192]              [4, 49, 192]              37,056                    True
│    │    └─Dropout: 3-13                          [4, 49, 192]              [4, 49, 192]              --                        --
│    └─LayerNorm: 2-14                             [1, 14, 14, 192]          [1, 14, 14, 192]          384                       True
│    └─LayerNorm: 2-15                             [1, 14, 14, 192]          [1, 14, 14, 192]          384                       True
│    └─WindowCrossAttention: 2-16                  [4, 49, 192]              [4, 49, 192]              1,014                     True
│    │    └─Linear: 3-14                           [4, 49, 192]              [4, 49, 192]              37,056                    True
│    │    └─Linear: 3-15                           [4, 49, 192]              [4, 49, 384]              74,112                    True
│    │    └─Dropout: 3-16                          [4, 6, 49, 49]            [4, 6, 49, 49]            --                        --
│    │    └─Linear: 3-17                           [4, 49, 192]              [4, 49, 192]              37,056                    True
│    │    └─Dropout: 3-18                          [4, 49, 192]              [4, 49, 192]              --                        --
│    └─LayerNorm: 2-17                             [1, 14, 14, 192]          [1, 14, 14, 192]          384                       True
│    └─Mlp: 2-18                                   [1, 14, 14, 192]          [1, 14, 14, 192]          --                        True
│    │    └─Linear: 3-19                           [1, 14, 14, 192]          [1, 14, 14, 768]          148,224                   True
│    │    └─GELU: 3-20                             [1, 14, 14, 768]          [1, 14, 14, 768]          --                        --
│    │    └─Dropout: 3-21                          [1, 14, 14, 768]          [1, 14, 14, 768]          --                        --
│    │    └─Linear: 3-22                           [1, 14, 14, 768]          [1, 14, 14, 192]          147,648                   True
│    │    └─Dropout: 3-23                          [1, 14, 14, 192]          [1, 14, 14, 192]          --                        --
│    └─LayerNorm: 2-19                             [1, 14, 14, 192]          [1, 14, 14, 192]          384                       True
│    └─Mlp: 2-20                                   [1, 14, 14, 192]          [1, 14, 14, 192]          --                        True
│    │    └─Linear: 3-24                           [1, 14, 14, 192]          [1, 14, 14, 768]          148,224                   True
│    │    └─GELU: 3-25                             [1, 14, 14, 768]          [1, 14, 14, 768]          --                        --
│    │    └─Dropout: 3-26                          [1, 14, 14, 768]          [1, 14, 14, 768]          --                        --
│    │    └─Linear: 3-27                           [1, 14, 14, 768]          [1, 14, 14, 192]          147,648                   True
│    │    └─Dropout: 3-28                          [1, 14, 14, 192]          [1, 14, 14, 192]          --                        --
├─PatchMerging: 1-10                               [1, 8, 8, 192]            [1, 4, 4, 384]            --                        True
│    └─LayerNorm: 2-21                             [1, 4, 4, 768]            [1, 4, 4, 768]            1,536                     True
│    └─Linear: 2-22                                [1, 4, 4, 768]            [1, 4, 4, 384]            294,912                   True
├─PlaneCondition: 1-11                             [1, 4, 4, 384]            [1, 4, 4, 384]            --                        True
│    └─Sequential: 2-23                            [1, 2]                    [1, 768]                  --                        True
│    │    └─Linear: 3-29                           [1, 2]                    [1, 128]                  384                       True
│    │    └─GELU: 3-30                             [1, 128]                  [1, 128]                  --                        --
│    │    └─Linear: 3-31                           [1, 128]                  [1, 768]                  99,072                    True
├─BasicLayer: 1-12                                 [1, 4, 4, 384]            [1, 4, 4, 384]            --                        True
│    └─ModuleList: 2-31                            --                        --                        (recursive)               True
│    │    └─SwinTransformerBlock: 3-32             [1, 4, 4, 384]            [1, 4, 4, 384]            --                        True
│    │    │    └─LayerNorm: 4-33                   [1, 7, 7, 384]            [1, 7, 7, 384]            768                       True
│    │    │    └─WindowAttention: 4-34             [1, 49, 384]              [1, 49, 384]              593,388                   True
│    │    │    └─LayerNorm: 4-35                   [1, 7, 7, 384]            [1, 7, 7, 384]            768                       True
│    │    │    └─Mlp: 4-36                         [1, 7, 7, 384]            [1, 7, 7, 384]            1,181,568                 True
│    │    └─SwinTransformerBlock: 3-33             [1, 4, 4, 384]            [1, 4, 4, 384]            --                        True
│    │    │    └─LayerNorm: 4-37                   [1, 7, 7, 384]            [1, 7, 7, 384]            768                       True
│    │    │    └─WindowAttention: 4-38             [1, 49, 384]              [1, 49, 384]              593,388                   True
│    │    │    └─LayerNorm: 4-39                   [1, 7, 7, 384]            [1, 7, 7, 384]            768                       True
│    │    │    └─Mlp: 4-40                         [1, 7, 7, 384]            [1, 7, 7, 384]            1,181,568                 True
│    │    └─SwinTransformerBlock: 3-34             [1, 4, 4, 384]            [1, 4, 4, 384]            --                        True
│    │    │    └─LayerNorm: 4-41                   [1, 7, 7, 384]            [1, 7, 7, 384]            768                       True
│    │    │    └─WindowAttention: 4-42             [1, 49, 384]              [1, 49, 384]              593,388                   True
│    │    │    └─LayerNorm: 4-43                   [1, 7, 7, 384]            [1, 7, 7, 384]            768                       True
│    │    │    └─Mlp: 4-44                         [1, 7, 7, 384]            [1, 7, 7, 384]            1,181,568                 True
│    │    └─SwinTransformerBlock: 3-35             [1, 4, 4, 384]            [1, 4, 4, 384]            --                        True
│    │    │    └─LayerNorm: 4-45                   [1, 7, 7, 384]            [1, 7, 7, 384]            768                       True
│    │    │    └─WindowAttention: 4-46             [1, 49, 384]              [1, 49, 384]              593,388                   True
│    │    │    └─LayerNorm: 4-47                   [1, 7, 7, 384]            [1, 7, 7, 384]            768                       True
│    │    │    └─Mlp: 4-48                         [1, 7, 7, 384]            [1, 7, 7, 384]            1,181,568                 True
│    │    └─SwinTransformerBlock: 3-36             [1, 4, 4, 384]            [1, 4, 4, 384]            --                        True
│    │    │    └─LayerNorm: 4-49                   [1, 7, 7, 384]            [1, 7, 7, 384]            768                       True
│    │    │    └─WindowAttention: 4-50             [1, 49, 384]              [1, 49, 384]              593,388                   True
│    │    │    └─LayerNorm: 4-51                   [1, 7, 7, 384]            [1, 7, 7, 384]            768                       True
│    │    │    └─Mlp: 4-52                         [1, 7, 7, 384]            [1, 7, 7, 384]            1,181,568                 True
│    │    └─SwinTransformerBlock: 3-37             [1, 4, 4, 384]            [1, 4, 4, 384]            --                        True
│    │    │    └─LayerNorm: 4-53                   [1, 7, 7, 384]            [1, 7, 7, 384]            768                       True
│    │    │    └─WindowAttention: 4-54             [1, 49, 384]              [1, 49, 384]              593,388                   True
│    │    │    └─LayerNorm: 4-55                   [1, 7, 7, 384]            [1, 7, 7, 384]            768                       True
│    │    │    └─Mlp: 4-56                         [1, 7, 7, 384]            [1, 7, 7, 384]            1,181,568                 True
├─PatchMerging: 1-13                               [1, 4, 4, 384]            [1, 2, 2, 768]            --                        True
│    └─LayerNorm: 2-25                             [1, 2, 2, 1536]           [1, 2, 2, 1536]           3,072                     True
│    └─Linear: 2-26                                [1, 2, 2, 1536]           [1, 2, 2, 768]            1,179,648                 True
├─BasicLayer: 1-14                                 [1, 2, 2, 768]            [1, 2, 2, 768]            --                        True
│    └─ModuleList: 2-34                            --                        --                        (recursive)               True
│    │    └─SwinTransformerBlock: 3-38             [1, 2, 2, 768]            [1, 2, 2, 768]            --                        True
│    │    │    └─LayerNorm: 4-57                   [1, 7, 7, 768]            [1, 7, 7, 768]            1,536                     True
│    │    │    └─WindowAttention: 4-58             [1, 49, 768]              [1, 49, 768]              2,366,424                 True
│    │    │    └─LayerNorm: 4-59                   [1, 7, 7, 768]            [1, 7, 7, 768]            1,536                     True
│    │    │    └─Mlp: 4-60                         [1, 7, 7, 768]            [1, 7, 7, 768]            4,722,432                 True
│    │    └─SwinTransformerBlock: 3-39             [1, 2, 2, 768]            [1, 2, 2, 768]            --                        True
│    │    │    └─LayerNorm: 4-61                   [1, 7, 7, 768]            [1, 7, 7, 768]            1,536                     True
│    │    │    └─WindowAttention: 4-62             [1, 49, 768]              [1, 49, 768]              2,366,424                 True
│    │    │    └─LayerNorm: 4-63                   [1, 7, 7, 768]            [1, 7, 7, 768]            1,536                     True
│    │    │    └─Mlp: 4-64                         [1, 7, 7, 768]            [1, 7, 7, 768]            4,722,432                 True
├─PatchMerging: 1-15                               [1, 8, 8, 192]            [1, 4, 4, 384]            (recursive)               True
│    └─LayerNorm: 2-28                             [1, 4, 4, 768]            [1, 4, 4, 768]            (recursive)               True
│    └─Linear: 2-29                                [1, 4, 4, 768]            [1, 4, 4, 384]            (recursive)               True
…
│    │    │    └─LayerNorm: 4-93                   [1, 7, 7, 768]            [1, 7, 7, 768]            (recursive)               True
│    │    │    └─WindowAttention: 4-94             [1, 49, 768]              [1, 49, 768]              (recursive)               True
│    │    │    └─LayerNorm: 4-95                   [1, 7, 7, 768]            [1, 7, 7, 768]            (recursive)               True
│    │    │    └─Mlp: 4-96                         [1, 7, 7, 768]            [1, 7, 7, 768]            (recursive)               True
├─ProjectionHead: 1-20                             [1, 768]                  [1, 128]                  --                        True
│    └─Sequential: 2-35                            [1, 768]                  [1, 128]                  --                        True
│    │    └─Linear: 3-51                           [1, 768]                  [1, 768]                  589,824                   True
│    │    └─BatchNorm1d: 3-52                      [1, 768]                  [1, 768]                  1,536                     True
│    │    └─ReLU: 3-53                             [1, 768]                  [1, 768]                  --                        --
│    │    └─Linear: 3-54                           [1, 768]                  [1, 128]                  98,432                    True
├─ProjectionHead: 1-21                             [1, 768]                  [1, 128]                  (recursive)               True
│    └─Sequential: 2-36                            [1, 768]                  [1, 128]                  (recursive)               True
│    │    └─Linear: 3-55                           [1, 768]                  [1, 768]                  (recursive)               True
│    │    └─BatchNorm1d: 3-56                      [1, 768]                  [1, 768]                  (recursive)               True
│    │    └─ReLU: 3-57                             [1, 768]                  [1, 768]                  --                        --
│    │    └─Linear: 3-58                           [1, 768]                  [1, 128]                  (recursive)               True
├─SwinUpBlock: 1-22                                [1, 2, 2, 768]            [1, 4, 4, 384]            --                        True
│    └─PatchExpand: 2-37                           [1, 2, 2, 768]            [1, 4, 4, 384]            --                        True
│    │    └─Linear: 3-59                           [1, 2, 2, 768]            [1, 2, 2, 1536]           1,179,648                 True
│    │    └─LayerNorm: 3-60                        [1, 4, 4, 384]            [1, 4, 4, 384]            768                       True
│    └─Linear: 2-38                                [1, 4, 4, 768]            [1, 4, 4, 384]            295,296                   True
│    └─LayerNorm: 2-39                             [1, 4, 4, 384]            [1, 4, 4, 384]            768                       True
│    └─BasicLayer: 2-40                            [1, 4, 4, 384]            [1, 4, 4, 384]            --                        True
│    │    └─ModuleList: 3-64                       --                        --                        (recursive)               True
│    │    │    └─SwinTransformerBlock: 4-97        [1, 4, 4, 384]            [1, 4, 4, 384]            1,776,492                 True
│    │    │    └─SwinTransformerBlock: 4-98        [1, 4, 4, 384]            [1, 4, 4, 384]            1,776,492                 True
│    │    │    └─SwinTransformerBlock: 4-99        [1, 4, 4, 384]            [1, 4, 4, 384]            1,776,492                 True
│    │    │    └─SwinTransformerBlock: 4-100       [1, 4, 4, 384]            [1, 4, 4, 384]            1,776,492                 True
│    │    │    └─SwinTransformerBlock: 4-101       [1, 4, 4, 384]            [1, 4, 4, 384]            1,776,492                 True
│    │    │    └─SwinTransformerBlock: 4-102       [1, 4, 4, 384]            [1, 4, 4, 384]            1,776,492                 True
├─SwinUpBlock: 1-23                                [1, 2, 2, 768]            [1, 4, 4, 384]            (recursive)               True
│    └─PatchExpand: 2-41                           [1, 2, 2, 768]            [1, 4, 4, 384]            (recursive)               True
│    │    └─Linear: 3-62                           [1, 2, 2, 768]            [1, 2, 2, 1536]           (recursive)               True
…
│    │    │    └─SwinTransformerBlock: 4-105       [1, 4, 4, 384]            [1, 4, 4, 384]            (recursive)               True
│    │    │    └─SwinTransformerBlock: 4-106       [1, 4, 4, 384]            [1, 4, 4, 384]            (recursive)               True
│    │    │    └─SwinTransformerBlock: 4-107       [1, 4, 4, 384]            [1, 4, 4, 384]            (recursive)               True
│    │    │    └─SwinTransformerBlock: 4-108       [1, 4, 4, 384]            [1, 4, 4, 384]            (recursive)               True
├─SwinUpBlock: 1-24                                [1, 4, 4, 384]            [1, 8, 8, 192]            --                        True
│    └─PatchExpand: 2-45                           [1, 4, 4, 384]            [1, 8, 8, 192]            --                        True
│    │    └─Linear: 3-65                           [1, 4, 4, 384]            [1, 4, 4, 768]            294,912                   True
│    │    └─LayerNorm: 3-66                        [1, 8, 8, 192]            [1, 8, 8, 192]            384                       True
│    └─Linear: 2-46                                [1, 8, 8, 384]            [1, 8, 8, 192]            73,920                    True
│    └─LayerNorm: 2-47                             [1, 8, 8, 192]            [1, 8, 8, 192]            384                       True
│    └─BasicLayer: 2-48                            [1, 8, 8, 192]            [1, 8, 8, 192]            --                        True
│    │    └─ModuleList: 3-67                       --                        --                        --                        True
│    │    │    └─SwinTransformerBlock: 4-109       [1, 8, 8, 192]            [1, 8, 8, 192]            445,878                   True
│    │    │    └─SwinTransformerBlock: 4-110       [1, 8, 8, 192]            [1, 8, 8, 192]            445,878                   True
├─SwinUpBlock: 1-25                                [1, 8, 8, 192]            [1, 16, 16, 96]           --                        True
│    └─PatchExpand: 2-49                           [1, 8, 8, 192]            [1, 16, 16, 96]           --                        True
│    │    └─Linear: 3-68                           [1, 8, 8, 192]            [1, 8, 8, 384]            73,728                    True
│    │    └─LayerNorm: 3-69                        [1, 16, 16, 96]           [1, 16, 16, 96]           192                       True
│    └─Linear: 2-50                                [1, 16, 16, 192]          [1, 16, 16, 96]           18,528                    True
│    └─LayerNorm: 2-51                             [1, 16, 16, 96]           [1, 16, 16, 96]           192                       True
│    └─BasicLayer: 2-52                            [1, 16, 16, 96]           [1, 16, 16, 96]           --                        True
│    │    └─ModuleList: 3-70                       --                        --                        --                        True
│    │    │    └─SwinTransformerBlock: 4-111       [1, 16, 16, 96]           [1, 16, 16, 96]           112,347                   True
│    │    │    └─SwinTransformerBlock: 4-112       [1, 16, 16, 96]           [1, 16, 16, 96]           112,347                   True
├─FinalPatchExpand: 1-26                           [1, 16, 16, 96]           [1, 256, 256, 32]         --                        True
│    └─Linear: 2-53                                [1, 16, 16, 96]           [1, 16, 16, 8192]         786,432                   True
├─Sequential: 1-27                                 [1, 32, 256, 256]         [1, 1, 256, 256]          --                        True
│    └─Conv2d: 2-54                                [1, 32, 256, 256]         [1, 16, 256, 256]         4,624                     True
│    └─ReLU: 2-55                                  [1, 16, 256, 256]         [1, 16, 256, 256]         --                        --
│    └─Conv2d: 2-56                                [1, 16, 256, 256]         [1, 1, 256, 256]          17                        True
├─SwinUpBlock: 1-28                                [1, 4, 4, 384]            [1, 8, 8, 192]            --                        True
│    └─PatchExpand: 2-57                           [1, 4, 4, 384]            [1, 8, 8, 192]            --                        True
│    │    └─Linear: 3-71                           [1, 4, 4, 384]            [1, 4, 4, 768]            294,912                   True
│    │    └─LayerNorm: 3-72                        [1, 8, 8, 192]            [1, 8, 8, 192]            384                       True
│    └─Linear: 2-58                                [1, 8, 8, 384]            [1, 8, 8, 192]            73,920                    True
│    └─LayerNorm: 2-59                             [1, 8, 8, 192]            [1, 8, 8, 192]            384                       True
│    └─BasicLayer: 2-60                            [1, 8, 8, 192]            [1, 8, 8, 192]            --                        True
│    │    └─ModuleList: 3-73                       --                        --                        --                        True
│    │    │    └─SwinTransformerBlock: 4-113       [1, 8, 8, 192]            [1, 8, 8, 192]            445,878                   True
│    │    │    └─SwinTransformerBlock: 4-114       [1, 8, 8, 192]            [1, 8, 8, 192]            445,878                   True
├─SwinUpBlock: 1-29                                [1, 8, 8, 192]            [1, 16, 16, 96]           --                        True
│    └─PatchExpand: 2-61                           [1, 8, 8, 192]            [1, 16, 16, 96]           --                        True
│    │    └─Linear: 3-74                           [1, 8, 8, 192]            [1, 8, 8, 384]            73,728                    True
│    │    └─LayerNorm: 3-75                        [1, 16, 16, 96]           [1, 16, 16, 96]           192                       True
│    └─Linear: 2-62                                [1, 16, 16, 192]          [1, 16, 16, 96]           18,528                    True
│    └─LayerNorm: 2-63                             [1, 16, 16, 96]           [1, 16, 16, 96]           192                       True
│    └─BasicLayer: 2-64                            [1, 16, 16, 96]           [1, 16, 16, 96]           --                        True
│    │    └─ModuleList: 3-76                       --                        --                        --                        True
│    │    │    └─SwinTransformerBlock: 4-115       [1, 16, 16, 96]           [1, 16, 16, 96]           112,347                   True
│    │    │    └─SwinTransformerBlock: 4-116       [1, 16, 16, 96]           [1, 16, 16, 96]           112,347                   True
├─FinalPatchExpand: 1-30                           [1, 16, 16, 96]           [1, 256, 256, 32]         --                        True
│    └─Linear: 2-65                                [1, 16, 16, 96]           [1, 16, 16, 8192]         786,432                   True
├─Sequential: 1-31                                 [1, 32, 256, 256]         [1, 1, 256, 256]          --                        True
│    └─Conv2d: 2-66                                [1, 32, 256, 256]         [1, 16, 256, 256]         4,624                     True
│    └─ReLU: 2-67                                  [1, 16, 256, 256]         [1, 16, 256, 256]         --                        --
│    └─Conv2d: 2-68                                [1, 16, 256, 256]         [1, 1, 256, 256]          17                        True
======================================================================================================================================================
Total params: 47,309,943
Trainable params: 47,309,943
Non-trainable params: 0
Total mult-adds (Units.MEGABYTES): 714.19
======================================================================================================================================================
…
